using data from torchtext.legacy
{   'batch_size': 32,
    'dropout': 0.2,
    'hidden_size': 64,
    'lang': 'enko',
    'lr': 0.0003,
    'max_length': 20,
    'n_epochs': 50,
    'n_layers': 4,
    'n_splits': 8,
    'train': 'corpus.shuf.train.tok.bpe',
    'use_adam': False,
    'use_transformer': True,
    'valid': 'corpus.shuf.valid.tok.bpe'}

input_size:  149792
output_size:  385245

 Transformer(
  (emb_enc): Embedding(149792, 64)
  (emb_dec): Embedding(385245, 64)
  (emb_dropout): Dropout(p=0.2, inplace=False)
  (encoder): MySequential(
    (0): EncoderBlock(
      (attn): MultiHead(
        (Q_linear): Linear(in_features=64, out_features=64, bias=False)
        (K_linear): Linear(in_features=64, out_features=64, bias=False)
        (V_linear): Linear(in_features=64, out_features=64, bias=False)
        (linear): Linear(in_features=64, out_features=64, bias=False)
        (attn): Attention(
          (softmax): Softmax(dim=-1)
        )
      )
      (attn_norm): LayerNorm((64,), eps=1e-05, elementwise_affine=True)
      (attn_dropout): Dropout(p=0.2, inplace=False)
      (fc): Sequential(
        (0): Linear(in_features=64, out_features=256, bias=True)
        (1): ReLU()
        (2): Linear(in_features=256, out_features=64, bias=True)
      )
      (fc_norm): LayerNorm((64,), eps=1e-05, elementwise_affine=True)
      (fc_dropout): Dropout(p=0.2, inplace=False)
    )
    (1): EncoderBlock(
      (attn): MultiHead(
        (Q_linear): Linear(in_features=64, out_features=64, bias=False)
        (K_linear): Linear(in_features=64, out_features=64, bias=False)
        (V_linear): Linear(in_features=64, out_features=64, bias=False)
        (linear): Linear(in_features=64, out_features=64, bias=False)
        (attn): Attention(
          (softmax): Softmax(dim=-1)
        )
      )
      (attn_norm): LayerNorm((64,), eps=1e-05, elementwise_affine=True)
      (attn_dropout): Dropout(p=0.2, inplace=False)
      (fc): Sequential(
        (0): Linear(in_features=64, out_features=256, bias=True)
        (1): ReLU()
        (2): Linear(in_features=256, out_features=64, bias=True)
      )
      (fc_norm): LayerNorm((64,), eps=1e-05, elementwise_affine=True)
      (fc_dropout): Dropout(p=0.2, inplace=False)
    )
    (2): EncoderBlock(
      (attn): MultiHead(
        (Q_linear): Linear(in_features=64, out_features=64, bias=False)
        (K_linear): Linear(in_features=64, out_features=64, bias=False)
        (V_linear): Linear(in_features=64, out_features=64, bias=False)
        (linear): Linear(in_features=64, out_features=64, bias=False)
        (attn): Attention(
          (softmax): Softmax(dim=-1)
        )
      )
      (attn_norm): LayerNorm((64,), eps=1e-05, elementwise_affine=True)
      (attn_dropout): Dropout(p=0.2, inplace=False)
      (fc): Sequential(
        (0): Linear(in_features=64, out_features=256, bias=True)
        (1): ReLU()
        (2): Linear(in_features=256, out_features=64, bias=True)
      )
      (fc_norm): LayerNorm((64,), eps=1e-05, elementwise_affine=True)
      (fc_dropout): Dropout(p=0.2, inplace=False)
    )
    (3): EncoderBlock(
      (attn): MultiHead(
        (Q_linear): Linear(in_features=64, out_features=64, bias=False)
        (K_linear): Linear(in_features=64, out_features=64, bias=False)
        (V_linear): Linear(in_features=64, out_features=64, bias=False)
        (linear): Linear(in_features=64, out_features=64, bias=False)
        (attn): Attention(
          (softmax): Softmax(dim=-1)
        )
      )
      (attn_norm): LayerNorm((64,), eps=1e-05, elementwise_affine=True)
      (attn_dropout): Dropout(p=0.2, inplace=False)
      (fc): Sequential(
        (0): Linear(in_features=64, out_features=256, bias=True)
        (1): ReLU()
        (2): Linear(in_features=256, out_features=64, bias=True)
      )
      (fc_norm): LayerNorm((64,), eps=1e-05, elementwise_affine=True)
      (fc_dropout): Dropout(p=0.2, inplace=False)
    )
  )
  (decoder): MySequential(
    (0): DecoderBlock(
      (masked_attn): MultiHead(
        (Q_linear): Linear(in_features=64, out_features=64, bias=False)
        (K_linear): Linear(in_features=64, out_features=64, bias=False)
        (V_linear): Linear(in_features=64, out_features=64, bias=False)
        (linear): Linear(in_features=64, out_features=64, bias=False)
        (attn): Attention(
          (softmax): Softmax(dim=-1)
        )
      )
      (masked_attn_norm): LayerNorm((64,), eps=1e-05, elementwise_affine=True)
      (masked_attn_dropout): Dropout(p=0.2, inplace=False)
      (attn): MultiHead(
        (Q_linear): Linear(in_features=64, out_features=64, bias=False)
        (K_linear): Linear(in_features=64, out_features=64, bias=False)
        (V_linear): Linear(in_features=64, out_features=64, bias=False)
        (linear): Linear(in_features=64, out_features=64, bias=False)
        (attn): Attention(
          (softmax): Softmax(dim=-1)
        )
      )
      (attn_norm): LayerNorm((64,), eps=1e-05, elementwise_affine=True)
      (attn_dropout): Dropout(p=0.2, inplace=False)
      (fc): Sequential(
        (0): Linear(in_features=64, out_features=256, bias=True)
        (1): ReLU()
        (2): Linear(in_features=256, out_features=64, bias=True)
      )
      (fc_norm): LayerNorm((64,), eps=1e-05, elementwise_affine=True)
      (fc_dropout): Dropout(p=0.2, inplace=False)
    )
    (1): DecoderBlock(
      (masked_attn): MultiHead(
        (Q_linear): Linear(in_features=64, out_features=64, bias=False)
        (K_linear): Linear(in_features=64, out_features=64, bias=False)
        (V_linear): Linear(in_features=64, out_features=64, bias=False)
        (linear): Linear(in_features=64, out_features=64, bias=False)
        (attn): Attention(
          (softmax): Softmax(dim=-1)
        )
      )
      (masked_attn_norm): LayerNorm((64,), eps=1e-05, elementwise_affine=True)
      (masked_attn_dropout): Dropout(p=0.2, inplace=False)
      (attn): MultiHead(
        (Q_linear): Linear(in_features=64, out_features=64, bias=False)
        (K_linear): Linear(in_features=64, out_features=64, bias=False)
        (V_linear): Linear(in_features=64, out_features=64, bias=False)
        (linear): Linear(in_features=64, out_features=64, bias=False)
        (attn): Attention(
          (softmax): Softmax(dim=-1)
        )
      )
      (attn_norm): LayerNorm((64,), eps=1e-05, elementwise_affine=True)
      (attn_dropout): Dropout(p=0.2, inplace=False)
      (fc): Sequential(
        (0): Linear(in_features=64, out_features=256, bias=True)
        (1): ReLU()
        (2): Linear(in_features=256, out_features=64, bias=True)
      )
      (fc_norm): LayerNorm((64,), eps=1e-05, elementwise_affine=True)
      (fc_dropout): Dropout(p=0.2, inplace=False)
    )
    (2): DecoderBlock(
      (masked_attn): MultiHead(
        (Q_linear): Linear(in_features=64, out_features=64, bias=False)
        (K_linear): Linear(in_features=64, out_features=64, bias=False)
        (V_linear): Linear(in_features=64, out_features=64, bias=False)
        (linear): Linear(in_features=64, out_features=64, bias=False)
        (attn): Attention(
          (softmax): Softmax(dim=-1)
        )
      )
      (masked_attn_norm): LayerNorm((64,), eps=1e-05, elementwise_affine=True)
      (masked_attn_dropout): Dropout(p=0.2, inplace=False)
      (attn): MultiHead(
        (Q_linear): Linear(in_features=64, out_features=64, bias=False)
        (K_linear): Linear(in_features=64, out_features=64, bias=False)
        (V_linear): Linear(in_features=64, out_features=64, bias=False)
        (linear): Linear(in_features=64, out_features=64, bias=False)
        (attn): Attention(
          (softmax): Softmax(dim=-1)
        )
      )
      (attn_norm): LayerNorm((64,), eps=1e-05, elementwise_affine=True)
      (attn_dropout): Dropout(p=0.2, inplace=False)
      (fc): Sequential(
        (0): Linear(in_features=64, out_features=256, bias=True)
        (1): ReLU()
        (2): Linear(in_features=256, out_features=64, bias=True)
      )
      (fc_norm): LayerNorm((64,), eps=1e-05, elementwise_affine=True)
      (fc_dropout): Dropout(p=0.2, inplace=False)
    )
    (3): DecoderBlock(
      (masked_attn): MultiHead(
        (Q_linear): Linear(in_features=64, out_features=64, bias=False)
        (K_linear): Linear(in_features=64, out_features=64, bias=False)
        (V_linear): Linear(in_features=64, out_features=64, bias=False)
        (linear): Linear(in_features=64, out_features=64, bias=False)
        (attn): Attention(
          (softmax): Softmax(dim=-1)
        )
      )
      (masked_attn_norm): LayerNorm((64,), eps=1e-05, elementwise_affine=True)
      (masked_attn_dropout): Dropout(p=0.2, inplace=False)
      (attn): MultiHead(
        (Q_linear): Linear(in_features=64, out_features=64, bias=False)
        (K_linear): Linear(in_features=64, out_features=64, bias=False)
        (V_linear): Linear(in_features=64, out_features=64, bias=False)
        (linear): Linear(in_features=64, out_features=64, bias=False)
        (attn): Attention(
          (softmax): Softmax(dim=-1)
        )
      )
      (attn_norm): LayerNorm((64,), eps=1e-05, elementwise_affine=True)
      (attn_dropout): Dropout(p=0.2, inplace=False)
      (fc): Sequential(
        (0): Linear(in_features=64, out_features=256, bias=True)
        (1): ReLU()
        (2): Linear(in_features=256, out_features=64, bias=True)
      )
      (fc_norm): LayerNorm((64,), eps=1e-05, elementwise_affine=True)
      (fc_dropout): Dropout(p=0.2, inplace=False)
    )
  )
  (generator): Sequential(
    (0): LayerNorm((64,), eps=1e-05, elementwise_affine=True)
    (1): Linear(in_features=64, out_features=385245, bias=True)
    (2): LogSoftmax(dim=-1)
  )
)

 Loss function: Negative Log-Likelihood with log-probability (NLLLoss)

Using device number: 0
Optimizer: Adam
Start training...
 Epoch  |  Train Loss  | Train Acc  | Val Loss | Val Acc | Elapsed
--------------------------------------------------------------------------------
   1    |   5.809577   | 46.174484  | 3.667241 | 43.93  | 429.34
…
