using data from torchtext.legacy
{   'batch_size': 8,
    'dropout': 0.0,
    'hidden_size': 16,
    'lang': 'enko',
    'lr': 0.0001,
    'max_length': 50,
    'n_epochs': 20,
    'n_layers': 4,
    'n_splits': 8,
    'train': 'corpus.shuf.train.tok.bpe',
    'use_adam': False,
    'use_transformer': True,
    'valid': 'corpus.shuf.valid.tok.bpe'}

input_size:  58365
output_size:  140364

 Transformer(
  (emb_enc): Embedding(58365, 16)
  (emb_dec): Embedding(140364, 16)
  (emb_dropout): Dropout(p=0.0, inplace=False)
  (encoder): MySequential(
    (0): EncoderBlock(
      (attn): MultiHead(
        (Q_linear): Linear(in_features=16, out_features=16, bias=False)
        (K_linear): Linear(in_features=16, out_features=16, bias=False)
        (V_linear): Linear(in_features=16, out_features=16, bias=False)
        (linear): Linear(in_features=16, out_features=16, bias=False)
        (attn): Attention(
          (softmax): Softmax(dim=-1)
        )
      )
      (attn_norm): LayerNorm((16,), eps=1e-05, elementwise_affine=True)
      (attn_dropout): Dropout(p=0.0, inplace=False)
      (fc): Sequential(
        (0): Linear(in_features=16, out_features=64, bias=True)
        (1): ReLU()
        (2): Linear(in_features=64, out_features=16, bias=True)
      )
      (fc_norm): LayerNorm((16,), eps=1e-05, elementwise_affine=True)
      (fc_dropout): Dropout(p=0.0, inplace=False)
    )
    (1): EncoderBlock(
      (attn): MultiHead(
        (Q_linear): Linear(in_features=16, out_features=16, bias=False)
        (K_linear): Linear(in_features=16, out_features=16, bias=False)
        (V_linear): Linear(in_features=16, out_features=16, bias=False)
        (linear): Linear(in_features=16, out_features=16, bias=False)
        (attn): Attention(
          (softmax): Softmax(dim=-1)
        )
      )
      (attn_norm): LayerNorm((16,), eps=1e-05, elementwise_affine=True)
      (attn_dropout): Dropout(p=0.0, inplace=False)
      (fc): Sequential(
        (0): Linear(in_features=16, out_features=64, bias=True)
        (1): ReLU()
        (2): Linear(in_features=64, out_features=16, bias=True)
      )
      (fc_norm): LayerNorm((16,), eps=1e-05, elementwise_affine=True)
      (fc_dropout): Dropout(p=0.0, inplace=False)
    )
    (2): EncoderBlock(
      (attn): MultiHead(
        (Q_linear): Linear(in_features=16, out_features=16, bias=False)
        (K_linear): Linear(in_features=16, out_features=16, bias=False)
        (V_linear): Linear(in_features=16, out_features=16, bias=False)
        (linear): Linear(in_features=16, out_features=16, bias=False)
        (attn): Attention(
          (softmax): Softmax(dim=-1)
        )
      )
      (attn_norm): LayerNorm((16,), eps=1e-05, elementwise_affine=True)
      (attn_dropout): Dropout(p=0.0, inplace=False)
      (fc): Sequential(
        (0): Linear(in_features=16, out_features=64, bias=True)
        (1): ReLU()
        (2): Linear(in_features=64, out_features=16, bias=True)
      )
      (fc_norm): LayerNorm((16,), eps=1e-05, elementwise_affine=True)
      (fc_dropout): Dropout(p=0.0, inplace=False)
    )
    (3): EncoderBlock(
      (attn): MultiHead(
        (Q_linear): Linear(in_features=16, out_features=16, bias=False)
        (K_linear): Linear(in_features=16, out_features=16, bias=False)
        (V_linear): Linear(in_features=16, out_features=16, bias=False)
        (linear): Linear(in_features=16, out_features=16, bias=False)
        (attn): Attention(
          (softmax): Softmax(dim=-1)
        )
      )
      (attn_norm): LayerNorm((16,), eps=1e-05, elementwise_affine=True)
      (attn_dropout): Dropout(p=0.0, inplace=False)
      (fc): Sequential(
        (0): Linear(in_features=16, out_features=64, bias=True)
        (1): ReLU()
        (2): Linear(in_features=64, out_features=16, bias=True)
      )
      (fc_norm): LayerNorm((16,), eps=1e-05, elementwise_affine=True)
      (fc_dropout): Dropout(p=0.0, inplace=False)
    )
  )
  (decoder): MySequential(
    (0): DecoderBlock(
      (masked_attn): MultiHead(
        (Q_linear): Linear(in_features=16, out_features=16, bias=False)
        (K_linear): Linear(in_features=16, out_features=16, bias=False)
        (V_linear): Linear(in_features=16, out_features=16, bias=False)
        (linear): Linear(in_features=16, out_features=16, bias=False)
        (attn): Attention(
          (softmax): Softmax(dim=-1)
        )
      )
      (masked_attn_norm): LayerNorm((16,), eps=1e-05, elementwise_affine=True)
      (masked_attn_dropout): Dropout(p=0.0, inplace=False)
      (attn): MultiHead(
        (Q_linear): Linear(in_features=16, out_features=16, bias=False)
        (K_linear): Linear(in_features=16, out_features=16, bias=False)
        (V_linear): Linear(in_features=16, out_features=16, bias=False)
        (linear): Linear(in_features=16, out_features=16, bias=False)
        (attn): Attention(
          (softmax): Softmax(dim=-1)
        )
      )
      (attn_norm): LayerNorm((16,), eps=1e-05, elementwise_affine=True)
      (attn_dropout): Dropout(p=0.0, inplace=False)
      (fc): Sequential(
        (0): Linear(in_features=16, out_features=64, bias=True)
        (1): ReLU()
        (2): Linear(in_features=64, out_features=16, bias=True)
      )
      (fc_norm): LayerNorm((16,), eps=1e-05, elementwise_affine=True)
      (fc_dropout): Dropout(p=0.0, inplace=False)
    )
    (1): DecoderBlock(
      (masked_attn): MultiHead(
        (Q_linear): Linear(in_features=16, out_features=16, bias=False)
        (K_linear): Linear(in_features=16, out_features=16, bias=False)
        (V_linear): Linear(in_features=16, out_features=16, bias=False)
        (linear): Linear(in_features=16, out_features=16, bias=False)
        (attn): Attention(
          (softmax): Softmax(dim=-1)
        )
      )
      (masked_attn_norm): LayerNorm((16,), eps=1e-05, elementwise_affine=True)
      (masked_attn_dropout): Dropout(p=0.0, inplace=False)
      (attn): MultiHead(
        (Q_linear): Linear(in_features=16, out_features=16, bias=False)
        (K_linear): Linear(in_features=16, out_features=16, bias=False)
        (V_linear): Linear(in_features=16, out_features=16, bias=False)
        (linear): Linear(in_features=16, out_features=16, bias=False)
        (attn): Attention(
          (softmax): Softmax(dim=-1)
        )
      )
      (attn_norm): LayerNorm((16,), eps=1e-05, elementwise_affine=True)
      (attn_dropout): Dropout(p=0.0, inplace=False)
      (fc): Sequential(
        (0): Linear(in_features=16, out_features=64, bias=True)
        (1): ReLU()
        (2): Linear(in_features=64, out_features=16, bias=True)
      )
      (fc_norm): LayerNorm((16,), eps=1e-05, elementwise_affine=True)
      (fc_dropout): Dropout(p=0.0, inplace=False)
    )
    (2): DecoderBlock(
      (masked_attn): MultiHead(
        (Q_linear): Linear(in_features=16, out_features=16, bias=False)
        (K_linear): Linear(in_features=16, out_features=16, bias=False)
        (V_linear): Linear(in_features=16, out_features=16, bias=False)
        (linear): Linear(in_features=16, out_features=16, bias=False)
        (attn): Attention(
          (softmax): Softmax(dim=-1)
        )
      )
      (masked_attn_norm): LayerNorm((16,), eps=1e-05, elementwise_affine=True)
      (masked_attn_dropout): Dropout(p=0.0, inplace=False)
      (attn): MultiHead(
        (Q_linear): Linear(in_features=16, out_features=16, bias=False)
        (K_linear): Linear(in_features=16, out_features=16, bias=False)
        (V_linear): Linear(in_features=16, out_features=16, bias=False)
        (linear): Linear(in_features=16, out_features=16, bias=False)
        (attn): Attention(
          (softmax): Softmax(dim=-1)
        )
      )
      (attn_norm): LayerNorm((16,), eps=1e-05, elementwise_affine=True)
      (attn_dropout): Dropout(p=0.0, inplace=False)
      (fc): Sequential(
        (0): Linear(in_features=16, out_features=64, bias=True)
        (1): ReLU()
        (2): Linear(in_features=64, out_features=16, bias=True)
      )
      (fc_norm): LayerNorm((16,), eps=1e-05, elementwise_affine=True)
      (fc_dropout): Dropout(p=0.0, inplace=False)
    )
    (3): DecoderBlock(
      (masked_attn): MultiHead(
        (Q_linear): Linear(in_features=16, out_features=16, bias=False)
        (K_linear): Linear(in_features=16, out_features=16, bias=False)
        (V_linear): Linear(in_features=16, out_features=16, bias=False)
        (linear): Linear(in_features=16, out_features=16, bias=False)
        (attn): Attention(
          (softmax): Softmax(dim=-1)
        )
      )
      (masked_attn_norm): LayerNorm((16,), eps=1e-05, elementwise_affine=True)
      (masked_attn_dropout): Dropout(p=0.0, inplace=False)
      (attn): MultiHead(
        (Q_linear): Linear(in_features=16, out_features=16, bias=False)
        (K_linear): Linear(in_features=16, out_features=16, bias=False)
        (V_linear): Linear(in_features=16, out_features=16, bias=False)
        (linear): Linear(in_features=16, out_features=16, bias=False)
        (attn): Attention(
          (softmax): Softmax(dim=-1)
        )
      )
      (attn_norm): LayerNorm((16,), eps=1e-05, elementwise_affine=True)
      (attn_dropout): Dropout(p=0.0, inplace=False)
      (fc): Sequential(
        (0): Linear(in_features=16, out_features=64, bias=True)
        (1): ReLU()
        (2): Linear(in_features=64, out_features=16, bias=True)
      )
      (fc_norm): LayerNorm((16,), eps=1e-05, elementwise_affine=True)
      (fc_dropout): Dropout(p=0.0, inplace=False)
    )
  )
  (generator): Sequential(
    (0): LayerNorm((16,), eps=1e-05, elementwise_affine=True)
    (1): Linear(in_features=16, out_features=140364, bias=True)
    (2): LogSoftmax(dim=-1)
  )
)

 Loss function: Negative Log-Likelihood with log-probability (NLLLoss)

Using device number: 0
Optimizer: Adam
Start training...
 Epoch  |  Train Loss  | Train Acc  | Val Loss | Val Acc | Elapsed
--------------------------------------------------------------------------------
   1    |  10.122601   |  8.971254  | 8.067906 | 17.31  | 94.46 
…
